checkpoints/mnist_relu_mlp.pt (torch, 657519 bytes, 6 tensors)

linear_sequence.0.weight f4 [196, 784]
0.002954223 0.002954223 0.002954223 0.002954223 0.002954223 0.002954223 0.002954223 0.002954223
0.002954223 0.002954223 0.002954223 0.002954223 0.0029542225 0.0029542227 0.002954223 0.002954223
0.002954223 0.002954223 0.002954223 0.002954223 0.002954223 0.002954223 0.002954223 0.002954223
0.002954223 0.002954223 0.002954223 0.002954223 0.002954223 0.002954223 0.002954223 0.002954223
0.002954223 0.002954223 0.0029542241 0.0029542379 0.0029541273 0.0029541901 0.0029542143 0.0029541915
0.0029542085 0.0029523838 0.0029284544 0.0029379865 0.0029444133 0.0029528567 0.0029542104 0.0029540034
0.0029541645 0.0029543794 0.0029543724 0.0029542348 0.002954223 0.002954223 0.002954223 0.002954223
0.002954223 0.002954223 0.0029542225 0.0029542001 0.0029542164 0.0029542232 0.002954272 0.0029543466
0.0029541154 0.002942721 0.0029355746 0.002935238 0.002935388 0.0029309734 0.0031567353 0.0040342817
0.0034108153 0.0029490867 0.0029746103 0.0030279437 0.0030295819 0.003019449 0.0029625746 0.0029543496
0.0029542248 0.002954223 0.002954223 0.002954223 0.002954223 0.002954223 0.002954709 0.0029553906
0.0029705155 0.0029536742 0.002947631 0.0028625703 0.0029385902 0.0029582572 0.0029417987 0.0028656898
0.002825524 0.0034702055 0.003916897 0.0037274135 0.002694444 0.0028838278 0.003927123 0.0036118089
0.0031461022 0.002778448 0.0026768388 0.0028572506 0.0029303124 0.0029542085 0.002954221 0.002954223
0.002954223 0.002954223 0.0029559955 0.002956319 0.002950442 0.002900535 0.002444895 0.0015835008
0.0017034592 0.0017498917 0.002171794 0.0031464165 0.003617774 0.003890557 0.004279952 0.0046497863
0.004465377 0.0041887295 0.00464827 0.004047015 0.0030144812 0.0026229415 0.002670991 0.002786032
0.0028867745 0.0029425514 0.0029540523 0.002954239 0.002954223 0.002954223 0.0029544486 0.0029693006
0.0029307776 0.0026947705 0.0015506487 0.0017255507 0.002589667 0.0027133161 0.002739284 0.002551996
0.0027846151 0.0013229745 0.001636139 0.0045712627 0.0057420693 0.0061297906 0.005897164 0.0049265027
0.0033759186 0.0021185249 0.0023497425 0.0028214161 0.0027683314 0.003102587 0.0029672186 0.002954864
0.002954223 0.002954223 0.0029557385 0.002944136 0.002908459 0.0025644924 0.0019152926 0.0026447184
0.004165447 0.0037099973 0.0016234653 -0.002176338 -0.0035319026 -0.004018583 -0.0032854255 0.00017805789
0.002421304 0.0065127634 0.007683616 0.004972558 0.0035109932 0.0025540716 0.0029920968 0.0026955376
0.0030203073 0.003121159 0.0030589916 0.0029555787 0.002954223 0.0029542267 0.0029580402 0.0028847586
0.0028592022 0.0022085577 0.0023181534 0.0035164242 0.003777769 0.0014223865 -0.0019207495 -0.003017516
-0.0018269775 -0.0010280166 -0.0016109172 -0.00023473377 0.0013030267 0.0037577348 0.0053869453 0.005370972
0.0043826625 0.0034770593 0.0032498823 0.0028868339 0.003086021 0.0030894778 0.0029688785 0.002954906
0.0029542563 0.002114662 0.0023963861 0.002905957 0.0028416764 0.0024031324 0.0031820568 0.0029112645
0.0011285144 -0.001155473 -0.00056831376 0.0021900197 0.0027890522 0.0011410781 0.0009144216 0.003221126
0.0019623425 0.0011115052 0.0019890936 0.0046137306 0.00473271 0.0031911167 0.0031538885 0.0033217743
0.0028562685 0.002949071 0.002955742 0.0029547752 0.002954223 0.0017812626 0.0017852543 0.0018421814
00000000: a39b 413b a39b 413b a39b 413b a39b 413b
00000010: a39b 413b a39b 413b a39b 413b a39b 413b
00000020: a39b 413b a39b 413b a39b 413b a39b 413b
00000030: a19b 413b a29b 413b a39b 413b a39b 413b
00000040: a39b 413b a39b 413b a39b 413b a39b 413b
00000050: a39b 413b a39b 413b a39b 413b a39b 413b
00000060: a39b 413b a39b 413b a39b 413b a39b 413b
00000070: a39b 413b a39b 413b a39b 413b a39b 413b
00000080: a39b 413b a39b 413b a89b 413b e39b 413b
00000090: 089a 413b 169b 413b 7e9b 413b 1c9b 413b
000000a0: 659b 413b c87c 413b 50eb 3f3b 3c8b 403b
000000b0: 0ff7 403b b784 413b 6d9b 413b f497 413b
000000c0: a89a 413b 439e 413b 259e 413b d69b 413b
000000d0: a39b 413b a39b 413b a39b 413b a39b 413b
000000e0: a39b 413b a39b 413b a19b 413b 419b 413b
000000f0: 879b 413b a49b 413b 769c 413b b69d 413b
00000100: d599 413b aada 403b c562 403b 1f5d 403b
00000110: a35f 403b 9315 403b 3be1 4e3b 0232 843b
00000120: fc87 5f3b 7745 413b aef1 423b 7770 463b
00000130: f38b 463b f3e1 453b c127 423b c39d 413b
00000140: ab9b 413b a39b 413b a39b 413b a39b 413b
00000150: a39b 413b a39b 413b cba3 413b 3aaf 413b
00000160: fbac 423b 6e92 413b 0b2d 413b f699 3b3b
00000170: 5d95 403b 52df 413b 31cb 403b 4cce 3b3b
00000180: 6d2c 393b 636c 633b 5059 803b 9f47 743b
00000190: 4595 303b 9afe 3c3b 18af 803b 19b4 6c3b
000001a0: d62e 4e3b 9f16 363b e76d 2f3b b640 3b3b
000001b0: 7c0a 403b 659b 413b 9b9b 413b a39b 413b
000001c0: a39b 413b a39b 413b 60b9 413b cdbe 413b
000001d0: 345c 413b e716 3e3b 883a 203b 788d cf3a
000001e0: 9b46 df3a 9f5c e53a a854 0e3b 1c34 4e3b
000001f0: 2d18 6d3b b7f8 7e3b d73e 8c3b 3c5d 983b
00000200: 4c52 923b 9c41 893b 8450 983b d39c 843b
00000210: 9a8e 453b a8e5 2b3b cb0b 2f3b dc95 363b
00000220: 0a30 3d3b d2d7 403b c698 413b e89b 413b
00000230: a39b 413b a39b 413b 6c9f 413b 9998 423b
00000240: 4a12 403b bf9a 303b 233f cb3a e02b e23a
00000250: 67b7 293b e4d1 313b 8f85 333b 633f 273b
00000260: 177e 363b a867 ad3a b773 d63a 88ca 953b
00000270: f827 bc3b 69dc c83b ff3c c13b 806e a13b
00000280: 843e 5d3b f3d6 0a3b 23fe 193b 82e7 383b
00000290: e56c 353b c654 4b3b ab75 423b 64a6 413b
000002a0: a39b 413b a39b 413b 10b5 413b 68f2 403b
000002b0: d89b 3e3b 0b11 283b 8e0a fb3a 0353 2d3b
000002c0: 4d7e 883b 6d23 733b 75ca d43a e5a0 0ebb
000002d0: 7e77 67bb 51ae 83bb 4b50 57bb 0db5 3a39
000002e0: bdae 1e3b 0569 d53b d8c6 fb3b d7f0 a23b
000002f0: b118 663b 3662 273b 0e17 443b 9ea7 303b
00000300: 59f0 453b 5c8c 4c3b 5d79 483b 62b2 413b
00000310: a39b 413b b39b 413b aedb 413b 380e 3d3b
00000320: 7461 3b3b 73bd 103b 29ec 173b cf73 663b
00000330: 7294 773b 5f6f ba3a a9c1 fbba 85c1 45bb
00000340: 3177 efba 83be 86ba 6925 d3ba de22 76b9
00000350: 52ca aa3a 5444 763b f984 b03b fbfe af3b
00000360: 709c 8f3b 60df 633b fafb 543b 0931 3d3b
00000370: d73e 4a3b d678 4a3b 8491 423b 19a7 413b
00000380: 329c 413b 2496 0a3b b00c 1d3b de71 3e3b
00000390: 6b3b 3a3b df7d 1d3b 0e8a 503b eaca 3e3b
000003a0: a9ea 933a 3d73 97ba e4fa 14ba 6f86 0f3b
000003b0: 88c8 363b 3a90 953a cbb5 6f3a 8719 533b
000003c0: a59a 003b edaf 913a 745b 023b c72e 973b
000003d0: d914 9b3b 0e22 513b 78b1 4e3b 20b2 593b
000003e0: 3c30 3b3b 3345 413b 1fb5 413b e7a4 413b
000003f0: a39b 413b 4179 e93a 32ff e93a 5a75 f13a

linear_sequence.0.bias f4 [196]
-0.0029542227 0.0028820818 0.008806464 0.0023417326 -0.004127863 -0.008822296 -0.008349987 0.01244677
-0.004513468 0.0122570675 -0.0048500337 -0.004697077 0.0012658058 0.00027950242 -0.0025536716 -0.0019557835
-0.0026668003 -0.013763558 0.033310715 -0.0014409644 -0.02193891 0.0024783348 -0.011282865 -0.005214057
-0.024042733 -0.017588386 0.0041821487 0.0019032434 -0.0005472983 -0.0017534458 -0.0017953832 0.014786712
-0.00168842 0.011486529 0.01077893 0.003322164 -0.004203279 0.010947666 -0.0027917402 -0.0035988635
0.0025553291 -0.0122175105 -0.0100705335 -0.005941053 0.013518538 -0.016808592 -0.0014479092 -0.001004799
-0.00983837 0.008796483 -0.001495798 0.00712148 -0.010988907 0.0045499154 0.009469135 0.0001953378
-0.0034448493 -0.0067907106 -0.0041253837 -0.0044269073 -0.0013972595 0.0036809924 -0.00649938 -0.0064635933
-0.0024996132 0.0062158788 -0.0020697096 0.007705735 -0.00046017152 0.0030621148 -0.0004448437 -0.0024247414
-0.0062266323 0.0023611062 0.005634142 -0.00032374405 -0.004111048 -0.016240068 -0.002300111 -0.0021063578
-0.0038856629 -0.0066568577 -0.002613685 0.016067248 -0.007556097 0.0066904803 -0.007085008 -0.0027769508
-0.0023439012 -0.0020604082 -0.010174237 -0.0014418287 -0.0064274985 -0.0017235528 -0.001273995 -0.0053987913
-0.014505519 -0.01400712 -0.0052757896 0.007184949 -0.0018766226 -0.004445509 -0.002278268 -0.014435105
-0.0014657567 0.0035292362 -0.0021028062 -0.0021314374 -0.0035222357 -0.006701017 0.030687207 0.0016796443
0.012559498 -0.0022037178 -0.0022588882 -0.015337621 -0.02641103 -0.0019947551 -0.00781564 -0.002266058
-0.0019371947 -0.004183248 0.0034141692 -0.0005215174 0.0017812672 0.0002878637 -0.014270994 -0.02450748
-0.0021405632 0.0014354476 -0.032527175 0.006162985 0.0046316143 -0.0053750393 -0.0023998881 0.0010914307
-0.018570883 -0.011521156 -0.015288486 -0.013351965 -0.017112628 -0.0086796675 -0.005859705 -0.000966123
-0.021628356 -0.010967139 0.013794208 -0.012405992 -0.003957332 0.00950733 -0.0015322034 -0.005917369
-0.0009751716 -0.0017124517 -0.0026213839 -0.0020247807 -0.030317102 -0.0016679422 0.006603228 -0.015285527
-0.0005679417 -0.0023465296 -0.018398339 -0.015023854 -0.0051358044 -0.019430071 0.0062818034 0.01502331
-0.0024259614 0.013762836 -0.0043320227 -0.0019125541 0.007212087 0.0013226118 -0.016602749 -0.027718134
-0.0076374738 -0.011466602 -0.005603127 -0.0026254542 -0.009844515 -0.004277338 -0.021273063 -0.0073858555
0.0025488073 0.007595322 -0.009311565 0.0036213202 -0.016474938 0.0025749044 0.011174072 0.006980947
-0.011816765 0.012356977 -0.014693241 -0.0014611677
00000000: a29b 41bb 4fe1 3c3b fd48 103c c177 193b
00000010: 0643 87bb 648b 10bc 62ce 08bc 8aed 4b3c
00000020: b7e5 93bb ded1 483c 08ed 9ebb f0e9 99bb
00000030: 65e9 a53a 2e8a 9239 805b 27bb 9a2c 00bb
00000040: 7cc5 2ebb 8c80 61bc d170 083d bede bcba
00000050: 3bb9 b3bc 8f6b 223b c4db 38bc aeda aabb
00000060: 44f5 c4bc 8515 90bc 680a 893b 4076 f93a
00000070: 9178 0fba e1d3 e5ba 1053 ebba f743 723c
00000080: f94d ddba ff31 3c3c 1c9a 303c aab8 593b
00000090: a9bb 89bb d75d 333c a1f5 36bb e9da 6bbb
000000a0: 4f77 273b f42b 48bc e1fe 24bc 2aad c2bb
000000b0: dc7c 5d3c 2cb2 89bc c5c7 bdba 76b3 83ba
000000c0: 1d31 21bc 201f 103c a70e c4ba 4e5b e93b
000000d0: d10a 34bc 7517 953b 6e24 1b3c 97d3 4c39
000000e0: fbc2 61bb 9c84 debb 3a2e 87bb 970f 91bb
000000f0: 4024 b7ba ce3c 713b c0f8 d4bb 8dcc d3bb
00000100: 8dd0 23bb 92ae cb3b f7a3 07bb 6480 fc3b
00000110: 2d43 f1b9 c3ad 483b e939 e9b9 69e8 1ebb
00000120: c708 ccbb cabc 1a3b 9c9e b83b 31bc a9b9
00000130: f8b5 86bb e409 85bc 76bd 16bb d20a 0abb
00000140: 9ba6 7ebb c521 dabb 5c4a 2bbb 769f 833c
00000150: 2399 f7bb d13b db3b 5b29 e8bb 81fd 35bb
00000160: 239c 19bb ea07 07bb d8b1 26bc befb bcba
00000170: c49d d2bb d6e8 e1ba 2efc a6ba 58e8 b0bb
00000180: 8ea8 6dbc 1f7e 65bc 88e0 acbb b86f eb3b
00000190: 01f9 f5ba a2ab 91bb ff4e 15bb 3881 6cbc
000001a0: a21e c0ba c24a 673b 3ccf 09bb 96af 0bbb
000001b0: 4fd5 66bb 3494 dbbb bd63 fb3c 8327 dc3a
000001c0: 5ac6 4d3c 406c 10bb db09 14bb a54a 7bbc
000001d0: f25b d8bc 70ba 02bb 2c0d 00bc 2582 14bb
000001e0: 78e9 fdba a113 89bb 41c0 5f3b 71b6 08ba
000001f0: 6979 e93a 69ec 9639 e3d0 69bc e9c3 c8bc
00000200: b148 0cbb a125 bc3a 373b 05bd def2 c93b
00000210: ccc4 973b 1921 b0bb 7147 1dbb 560e 8f3a
00000220: f721 98bc 3bc3 3cbc 8f7c 7abc 33c2 5abc
00000230: c82f 8cbc 2a35 0ebc c502 c0bb 6b43 7dba
00000240: f32d b1bc 84af 33bc 1a01 623c 8042 4bbc
00000250: 82ac 81bb a2c4 1b3c 37d4 c8ba 7de6 c1bb
00000260: a9a2 7fba 5874 e0ba 86cb 2bbb 2fb2 04bb
00000270: 925b f8bc da9e daba e45f d83b 2670 7abc
00000280: ece1 14ba 3cc8 19bb 1db8 96bc 9c26 76bc
00000290: 404a a8bb d02b 9fbc 96d7 cd3b 5424 763c
000002a0: e1fc 1ebb 857d 613c a4f3 8dbb abae faba
000002b0: 5f53 ec3b 7d5b ad3a 7d02 88bc 2411 e3bc
000002c0: c643 fabb 6ade 3bbc 709a b7bb d00f 2cbb
000002d0: e34a 21bc e928 8cbb d944 aebc 0c05 f2bb
000002e0: e409 273b 2ee2 f83b 898f 18bc ac53 6d3b
000002f0: 73f6 86bc babf 283b 7413 373c 6ec0 e43b
00000300: 1b9b 41bc eb74 4a3c ebbb 70bc a784 bfba

linear_sequence.1.weight f4 [48, 196]
0.01124581 0.025887797 -0.10801098 -0.058042314 -0.10922203 -0.006673211 0.0046956544 0.17999607
-0.021754278 -0.038962502 0.015141964 -0.016835717 -0.10361226 0.015768323 -0.0022284922 0.00027403596
0.0060481387 -0.04667279 -5.1770112e-05 0.0035039599 0.064106785 0.0907406 -0.18429472 -0.04165435
-0.044281185 0.2145227 0.10583535 0.061549477 -0.1618236 0.005760219 -0.0063572214 -0.012392677
0.005939943 0.058057673 0.07160768 0.025328912 -0.040018976 -0.049866065 0.0016318351 -0.055562515
-0.03195316 -0.14324023 0.0020766268 0.12378405 0.098787576 0.008072996 0.009648295 -0.06162671
0.16413243 -0.047816392 -0.2916976 -0.117382735 0.011347046 0.03246866 0.024637977 0.09163085
0.09812117 0.0407525 -0.0073391325 0.12152049 0.00015137208 -0.2174924 0.012334472 0.012209863
0.010550523 0.016838487 -0.0019176723 0.108117916 -0.04985693 0.05965368 -0.021648481 0.018252837
0.013607221 -0.16218527 0.075768575 0.034163564 -0.027752457 -0.084244214 0.0012832239 0.00018229274
-0.0029133174 0.0033032561 -0.11195014 0.10934058 -0.028917452 0.040372435 -0.29023668 -0.0070151775
-0.00019482344 0.0037564165 -0.004149131 0.0042256876 0.15162176 -0.00015153833 -0.0020820582 0.04026666
-6.8446093e-06 0.012947566 -0.058894474 0.04600093 -0.008821797 -0.015041184 0.009100254 -0.1475784
-0.0005033985 -0.1067875 0.015416413 0.009538843 -0.0045537776 0.032871332 0.10213944 0.04387386
0.116503984 0.004266142 -0.008013811 -0.022428727 0.12158581 0.01404151 -0.048452396 0.018856816
-0.09934416 -0.07584071 0.041345265 0.042786494 0.07159131 0.045493845 0.13426472 -0.16540012
0.041278083 -0.0079771355 0.03566211 -0.14030011 -0.026176361 -0.101985276 0.10925053 -0.20985922
0.05374009 0.14364593 0.14799613 0.0221753 -0.27599797 0.052590087 0.06544225 0.05746937
0.057671163 0.06761426 -0.14147781 0.16094679 -2.250258e-05 -0.11878333 0.0008795896 -0.25070116
-0.074632965 0.0006964123 0.0033673337 -0.008613764 0.17396483 -0.00034826438 0.08595969 0.040107857
-0.015500844 0.0047150366 -0.027160048 0.11759223 -0.0128460545 -0.19869515 0.09342029 0.028082527
0.18497881 0.063291885 0.0083401315 0.009425183 -0.061057515 0.019872488 0.028558055 0.08107527
0.05660071 0.1307267 0.25155842 0.00615919 0.087113604 -0.09711399 -0.05759456 0.06756529
0.07105873 -0.057676997 0.0069197407 0.25443316 -0.08844481 0.015072185 -0.07199 -0.25641093
-0.11930518 0.030759512 -0.0023003384 0.013936425 0.019054633 0.021573106 -0.013936013 -0.08168638
0.013779352 0.039610647 0.017413838 0.07030246 -0.060829222 0.21519038 0.10803557 -0.08772633
-0.043203425 0.034329545 0.0045058713 -0.003986845 0.004844492 -0.09707128 0.026099278 0.003201739
-0.0036659236 -0.26531804 -0.0065435763 0.00063727406 -0.13151182 0.13133705 0.04027442 0.12595971
0.12534443 0.016281534 -0.000966126 0.14864092 -0.0083030565 -0.0045682453 -0.081631355 0.030651074
0.01860284 -0.014572171 0.0046091387 -0.06115855 0.06383186 0.022452917 -0.015827963 -0.030163903
-0.028624805 -0.007556747 -0.0044399993 0.15093598 -0.052495304 0.0087957075 0.10970407 0.024069058
-0.09827678 -0.04011261 0.10524522 -0.25036445 0.01910652 0.03440572 0.0036562511 0.029079694
00000000: 5940 383c a512 d43c dc34 ddbd c7bd 6dbd
00000010: cdaf dfbd f4aa dabb 01de 993b e450 383e
00000020: 0736 b2bc 2597 1fbd 0016 783c 0feb 89bc
00000030: aa32 d4bd 922c 813c e50b 12bb 7cac 8f39
00000040: 772f c63b f82b 3fbd bc23 59b8 b1a2 653b
00000050: 6b4a 833d 35d6 b93d c1b7 3cbe c09d 2abd
00000060: 3060 35bd d7ab 5b3e 34c0 d83d 4e1b 7c3d
00000070: 16b5 25be 38c0 bc3b 3d50 d0bb a80a 4bbc
00000080: daa3 c23b e2cd 6d3d 0ca7 923d 947e cf3c
00000090: f0ea 23bd 5c40 4cbd 4de3 d53a 8595 63bd
000000a0: 51e1 02bd 91ad 12be 0418 083b 7e82 fd3d
000000b0: 2451 ca3d 9944 043c e213 1e3c 4a6c 7cbd
000000c0: 5512 283e 1fdb 43bd 6359 95be 5c66 f0bd
000000d0: f6e8 393c dcfd 043d 95d5 c93c f5a8 bb3d
000000e0: c1f3 c83d 18ec 263d 1b7d f0bb bcdf f83d
000000f0: a2b9 1e39 54b6 5ebe 8616 4a3c e10b 483c
00000100: 1adc 2c3c def0 893c 685a fbba ed6c dd3d
00000110: c836 4cbd 6b57 743d 2858 b1bc f986 953c
00000120: d2f0 5e3c e513 26be 8e2c 9b3d 18ef 0b3d
00000130: 1f59 e3bc 3b88 acbd d931 a83a d625 3f39
00000140: 5bed 3ebb 717b 583b 1d46 e5bd f4ed df3d
00000150: 4be4 ecbc 915d 253d e799 94be 93df e5bb
00000160: 8549 4cb9 362e 763b 6ff5 87bb a377 8a3b
00000170: bc42 1b3e 43e6 1eb9 2473 08bb a7ee 243d
00000180: bfaa e5b6 0722 543c 553b 71bd 796b 3c3d
00000190: 4c89 10bc 4c6f 76bc 3b19 153c cb1e 17be
000001a0: 80f6 03ba 68b3 dabd 1f95 7c3c cf48 1c3c
000001b0: db37 95bb 17a4 063d 7c2e d13d 14b5 333d
000001c0: a499 ee3d feca 8b3b 5c4c 03bc 73bc b7bc
000001d0: fb01 f93d 5d0e 663c 0576 46bd 9c79 9a3c
000001e0: f374 cbbd 6052 9bbd a759 293d e440 2f3d
000001f0: 779e 923d c157 3a3d b17c 093e a65e 29be
00000200: 3513 293d 88b2 02bc 6f12 123d d5aa 0fbe
00000210: cf6f d6bc a8dd d0bd bebe df3d 56e5 56be
00000220: 921e 5c3d eb17 133e 4c8c 173e faa8 b53c
00000230: 9b4f 8dbe b468 573d 9606 863d 0165 6b3d
00000240: 9938 6c3d 5879 8a3d 8fdf 10be 3ccf 243e
00000250: ecc3 bcb7 ad44 f3bd 4294 663a e75b 80be
00000260: 2bd9 98bd 708f 363a 7cae 5c3b bf20 0dbc
00000270: d623 323e 4197 b6b9 a20b b03d 2348 243d
00000280: 41f7 7dbc 9880 9a3b c07e debc 32d4 f03d
00000290: 4278 52bc be76 4bbe 2353 bf3d 540d e63c
000002a0: 166b 3d3e 2d9f 813d 0ca5 083c 156c 1a3c
000002b0: 7217 7abd a1cb a23c 95f2 e93c cb0a a63d
000002c0: 25d6 673d 38dd 053e 44cc 803e 08d3 c93b
000002d0: 9e68 b23d b3e3 c6bd 46e8 6bbd ac5f 8a3d
000002e0: 3d87 913d b73e 6cbd febe e23b 1045 823e
000002f0: 8d22 b5bd 53f1 763c 7e6f 93bd 4b48 83be
00000300: 4656 f4bd 5ffb fb3c 46c1 16bb 9a55 643c
00000310: 7618 9c3c 15ba b03c e053 64bc 304b a7bd
00000320: cbc2 613c c63e 223d 77a7 8e3c bcfa 8f3d
00000330: 1028 79bd de5a 5c3e c141 dd3d dda9 b3bd
00000340: 13f6 30bd 239d 0c3d fda5 933b 14a4 82bb
00000350: 8bbe 9e3b 4fcd c6bd 27ce d53c 44d4 513b
00000360: fe3f 70bb c4d7 87be 7f6b d6bb bd0e 273a
00000370: 09ab 06be 387d 063e caf6 243d 95fb 003e
00000380: 4a5a 003e da60 853c 9e43 7dba 5335 183e
00000390: 8b09 08bc 38b1 95bb 572e a7bd f617 fb3c
000003a0: fc64 983c 1dc0 6ebc 4208 973b 6381 7abd
000003b0: 47ba 823d 2eef b73c a5a9 81bc 4a1a f7bc
000003c0: 917e eabc 979e f7bb 6a7d 91bb f68e 1a3e
000003d0: 5105 57bd df1b 103c 87ac e03d 792c c53c
000003e0: 5645 c9bd 1f4d 24bd ce8a d73d c52f 80be
000003f0: 4785 9c3c 03ed 0c3d b79d 6f3b 8a38 ee3c

linear_sequence.1.bias f4 [48]
0.053873044 0.07055375 -0.00748973 0.1008405 0.019300446 -0.0017087486 -0.03511078 0.020959755
0.08904691 -0.06380427 -0.0022933842 0.03321679 0.026089216 -0.03155624 0.012228167 0.05911577
0.0017677014 0.025121333 0.04965092 0.01982096 0.07177474 0.032090493 -0.019789314 0.042449404
0.04357793 0.06457462 0.11967857 0.047801837 0.0892682 -0.012472172 0.02616149 0.029927522
0.055222344 0.11928857 0.094638206 0.08846645 -0.07881149 -0.008009951 -0.00023026128 0.058617864
-0.08995965 -0.0109240385 0.03974153 -0.05362236 0.099327646 -0.058606043 0.04677907 -0.043779243
00000000: fba9 5c3d 7c7e 903d 696c f5bb 7785 ce3d
00000010: f81b 9e3c 17f8 dfba 52d0 0fbd cbb3 ab3c
00000020: 3a5e b63d d0ab 82bd 9a4c 16bb 540e 083d
00000030: 0db9 d53c 1e41 01bd a658 483c 6123 723d
00000040: 37b2 e73a 41cb cd3c c35e 4b3d 915f a23c
00000050: a3fe 923d 5271 033d 331d a2bc 6ddf 2d3d
00000060: c67e 323d b33f 843d 0a1a f53d dccb 433d
00000070: 3fd2 b63d 1558 4cbc 9f50 d63c 902a f53c
00000080: d330 623d 914d f43d add1 c13d e62d b53d
00000090: eb67 a1bd 2b3c 03bc 4b72 71b9 4919 703d
000000a0: c43c b8bd bdfa 32bc 04c8 223d 1fa3 5bbd
000000b0: 4b6c cb3d e40c 70bd 699b 3f3d dd51 33bd

final.weight f4 [10, 48]
0.031463247 -0.21722582 0.24573235 -0.42958823 0.079761505 -0.0032711918 -0.19552025 -0.21061492
0.14163664 0.26867914 -0.12085775 -0.064969406 0.17610022 -0.16357337 -0.5623594 -0.34608525
-0.21843748 0.075185195 0.27568418 -0.3534345 -0.29090783 0.16610485 0.28411704 -0.10986247
-0.23223704 -0.516834 0.1578333 0.11307805 0.23473412 -0.21233353 -0.25599587 -0.41593763
-0.32129377 0.25337544 0.055736665 0.06390914 0.26439232 0.1693356 -0.11428073 0.22946122
0.065979995 0.12004811 -0.021546155 0.20704123 -0.09432933 -0.25363714 -0.086921416 -0.3393692
-0.59140176 0.008506307 -0.16702463 0.03344645 -0.23799974 -0.0005960101 0.26635703 -0.09759312
-0.045637187 0.16252023 -0.040658344 -0.009622983 -0.07121867 0.115369394 0.039275113 -0.048355687
-0.034521822 -0.24664818 -0.29801148 0.10362858 -0.20258823 -0.3238463 0.3096538 0.08342398
0.15469585 0.01067159 -0.33018163 0.06022078 -0.08825612 0.11797127 0.2586146 -0.056451697
0.2951219 -0.4318309 -0.018939631 -0.28672755 0.3952447 -0.49702236 0.049071547 -0.36178792
0.2561146 -0.2663838 -0.17883725 0.19069271 0.016679244 0.20613451 -0.45392475 0.11220955
-0.17449285 -0.4890827 0.17558065 -0.5492054 -0.14649202 -0.0019047228 0.1737724 0.12818736
-0.55398184 0.24781384 0.17984834 -0.24767184 0.17563635 0.07616789 0.1475062 -0.06565869
0.31627336 0.30346912 0.13801792 -0.23814884 0.25620484 0.19882308 -0.39140996 0.011758142
-0.12558018 -0.14580436 0.18961243 -0.45990252 0.0016447459 -0.39679232 0.06650011 0.116894
0.01800559 -0.20022807 0.061045434 -0.20595907 -0.050251365 0.036782004 0.18345395 -0.14746791
-0.08159978 0.048207454 0.09300309 0.13389145 -0.3411515 0.4533974 -0.062234163 -0.29503185
-0.053809337 -0.03581876 -0.4231362 -0.32380527 0.33898205 -0.0009558059 -0.21530661 0.14846873
-0.20740092 0.1954666 -0.0020875528 0.12884992 -0.42976147 0.23157024 0.2936617 0.073267825
-0.035386715 -0.23089147 -0.5182824 -0.38313356 -0.18262589 0.2722225 -0.41510025 -0.0067393566
0.03112767 0.11148653 -0.26624885 0.058127236 -0.040089525 -0.20344336 0.07406726 0.19462809
-0.473847 0.085955955 -0.3078114 0.22700468 -0.2846402 -0.0060651274 0.073669076 0.20584033
0.23023187 0.059124958 0.1614268 0.049586035 -0.08599738 -0.39349082 -0.44053915 0.28514427
-0.15927064 0.047255542 0.26368028 0.032939576 0.19600217 0.002037402 -0.44517753 0.18456839
0.11558666 -0.20971158 0.41286355 -0.57571536 0.26656818 0.1055845 -0.1151328 0.2142302
-0.37114668 0.07881369 0.10044857 0.2847104 0.067698576 -0.75528455 -0.20121706 -0.24194542
0.147153 0.0027699575 -0.13565807 0.21678565 0.17470351 0.09248734 -0.13638355 -0.13694188
0.15631497 -0.025529258 0.076813996 0.041151956 -0.58935755 -0.22880013 -0.16593121 0.07771869
-0.0073628924 -0.47510543 -0.4889167 -0.039815474 -0.043768957 -0.022399098 0.056212816 0.24937849
0.09970884 0.23167506 0.06618956 0.09191912 0.3532834 -0.00073550316 0.31260282 -0.53250045
0.29543847 -0.16742304 0.09286751 0.03744773 -0.1985487 -0.28532657 -0.09395361 0.17041473
00000000: 9bdf 003d 7270 5ebe 43a1 7b3e fdf2 dbbe
00000010: 005a a33d 7e61 56bb 7636 48be 70ab 57be
00000020: 3209 113e 5090 893e 4584 f7bd ae0e 85bd
00000030: 9e53 343e c77f 27be c9f6 0fbf 1632 b1be
00000040: 13ae 5fbe b2fa 993d 7a26 8d3e 5ef5 b4be
00000050: dff1 94be 6417 2a3e ca77 913e 93ff e0bd
00000060: 8ccf 6dbe 3c4f 04bf 0d9f 213e 7795 e73d
00000070: 245e 703e f66d 59be e411 83be c7f5 d4be
00000080: 9e80 a4be 6dba 813e 214c 643d cce2 823d
00000090: 6e5e 873e 5066 2d3e 040c eabd e2f7 6a3e
000000a0: 8520 873d c9db f53d 9081 b0bc 9e02 543e
000000b0: bc2f c1bd badc 81be db03 b2bd cdc1 adbe
000000c0: 1b66 17bf 0a5e 0b3c 8108 2bbe 25ff 083d
000000d0: 34b6 73be 903d 1cba f35f 883e e7de c7bd
000000e0: 0fee 3abd b46b 263e 5d89 26bd b7a9 1dbc
000000f0: 18db 91bd ca46 ec3d f1de 203d 9d10 46bd
00000100: c166 0dbd 5791 7cbe f694 98be 393b d43d
00000110: 4a73 4fbe 2fcf a5be f18a 9e3e 31da aa3d
00000120: 9768 1e3e e5d7 2e3c 910d a9be 11aa 763d
00000130: a0bf b4bd ec9a f13d 2269 843e e539 67bd
00000140: 381a 973e f118 ddbe 4927 9bbc f4cd 92be
00000150: 835d ca3e b779 febe 3fff 483d 443c b9be
00000160: 7421 833e 7563 88be 1d21 37be f344 433e
00000170: e9a2 883c ed14 533e d368 e8be 1fce e53d
00000180: 41ae 32be 0c69 fabe 6acb 333e ba98 0cbf
00000190: 0102 16be e4a7 f9ba 64f1 313e 8c43 033e
000001a0: c1d1 0dbf e9c2 7d3e 2a2a 383e b09d 7dbe
000001b0: 04da 333e e9fd 9b3d de0b 173e 1078 86bd
000001c0: 95ee a13e 4e60 9b3e 9254 0d3e 4add 73be
000001d0: 482d 833e 4798 4b3e e366 c8be 39a5 403c
000001e0: 1798 00be bd4d 15be c329 423e 5878 ebbe
000001f0: 8494 d73a 5d28 cbbe 3631 883d 1f66 ef3d
00000200: 7680 933c 9608 4dbe c70a 7a3d efe6 52be
00000210: 60d4 4dbd baa8 163d 5adb 3b3e d401 17be
00000220: c91d a7bd 2e75 453d 6778 be3d d71a 093e
00000230: 69ab aebe b423 e83e 40e9 7ebd 6a0e 97be
00000240: 2e67 5cbd b1b6 12bd 4fa5 d8be cec9 a5be
00000250: 0e8f ad3e 0c8f 7aba 5679 5cbe 3008 183e
00000260: e860 54be 6528 483e 53cf 08bb 3cf1 033e
00000270: b209 dcbe c020 6d3e d45a 963e 710d 963d
00000280: a9f1 10bd d06e 6cbe 28ae 04bf 152a c4be
00000290: 4802 3bbe bf60 8b3e 0588 d4be d2d5 dcbb
000002a0: 75ff fe3c 0d53 e43d c551 88be d316 6e3d
000002b0: ea34 24bd 7553 50be 93b0 973d 964c 473e
000002c0: 139c f2be ad09 b03d 7599 9dbe ea73 683e
000002d0: 5cbc 91be fabd c6bb d0df 963d cfc7 523e
000002e0: e7c1 6b3e 032d 723d 114d 253e ba1a 4b3d
000002f0: 651f b0bd a177 c9be 598e e1be 6efe 913e
00000300: d817 23be 078f 413d 1a01 873e a6eb 063d
00000310: cbb4 483e ef85 053b 4fee e3be 7fff 3c3e
00000320: b3b8 ec3d a2be 56be da62 d33e 1562 13bf
00000330: a07b 883e b03c d83d bfca ebbd 295f 5b3e
00000340: f006 bebe 1269 a13d fbb7 cd3d 90c5 913e
00000350: 8da5 8a3d 545a 41bf d80b 4ebe 8ac0 77be
00000360: 47af 163e 2d88 353b f3e9 0abe 0ffd 5d3e
00000370: 7ae5 323e 016a bd3d 21a8 0bbe 7e3a 0cbe
00000380: 0811 203e bc22 d1bc a850 9d3d f48e 283d
00000390: 23e0 16bf 954a 6abe dfe9 29be fa2a 9f3d
000003a0: 6b44 f1bb 0541 f3be 4a53 fabe 8d15 23bd
000003b0: 1447 33bd 507e b7bc 693f 663d 135d 7f3e
000003c0: 2634 cc3d 3a3c 6d3e 648e 873d 1740 bc3d
000003d0: 90e1 b43e c8ce 40ba 7a0d a03e f351 08bf
000003e0: b643 973e f270 2bbe 5231 be3d ca62 193d
000003f0: 5a50 4bbe 5316 92be c06a c0bd 3381 2e3e

final.bias f4 [10]
-0.058692332 -0.005561643 -0.074367486 -0.035080835 -0.01634844 0.0043708184 0.0053104917 -0.06130367
0.16598368 0.0042930394
00000000: 5f67 70bd 713e b6bb fb4d 98bd ecb0 0fbd
00000010: 2aed 85bc 1539 8f3b a203 ae3b 8f19 7bbd
00000020: a0f7 293e a0ac 8c3b
