checkpoints/mnist_heav_mlp.pt (torch, 657519 bytes, 6 tensors)

linear_sequence.0.weight f4 [196, 784]
00000000: fd40 81bc 2905 80bc 7e13 83bc ab94 8a39
00000010: e337 c0bb d70c 96bc 3afb b5bc 95b5 ccbb
00000020: 2eeb 4fbc 96bc 82bc 4eba 43bb 26b2 1dbc
00000030: b6c6 b3bc 681b ddba 1cc8 4bbc e890 9dbc
00000040: 273b 8ebc f419 33ba 0f22 aabb 9d62 a3bc
00000050: ede2 81bc ff82 c2bb 3ea2 f5bb 7e4e 01bb
00000060: cf8e 85bc 0c33 9dbc 0281 92bc 0ba6 53bc
00000070: 2ff9 84b9 1e4c 06bc d36e b9bc 9f95 8ebc
00000080: e70a 98bc 06c8 d2bc f7d7 afbc d4d4 28bc
00000090: 1c24 9dbc cafa b8bc a14d 9cbc 58f4 c839
000000a0: 70d1 5abc dd79 aabc 571c bbbb cd15 c8bc
000000b0: 070a 0fbb 412a 53bc 7813 7cbc cad1 4cbc
000000c0: 9d27 65bc 541e 21bc 96f0 62bc c316 cabc
000000d0: 29ed 53bc 8b28 36bc ed11 09bc 5dfe cebc
000000e0: 7c18 fbbb 0594 8abc 75e9 9cbc 05d5 29bb
000000f0: b67a 58bb 185f 20bc 7a98 4dbc 5e97 38bc
00000100: a8f6 46bc 28b5 b1bc 1aa7 5bbc 5e2f f3bb
00000110: a73b 40bb 9c06 06bd c56f cabc 1821 d2bc
00000120: 055f 66bc e88e d8bc 56b6 61bb 159b c4bb
00000130: 7b3c ecbc 5899 18bd d6df b6bc 9b4c c9ba
00000140: 6fe3 9abc 604d 1dba 6a96 32bc ad1b 5cbc
00000150: cf1a 58bb a4ee 21bc 3802 42bc 887d c4bc
00000160: d2e6 8bbb 9ad1 bbbc 5503 13bd 9b23 cbbc
00000170: 3abe 9b3a 3868 41bb bcd0 173d a79a e53c
00000180: 8e02 4e3d a3a8 e1bc 10bc 0bbd 6e47 25bc
00000190: 34b9 3fbc d848 afbc 09cd 52bd 6517 2abd
000001a0: 2b56 f4b9 5660 1d3c 5a63 323c 40dd 04bd
000001b0: 0c27 0ebd ff17 e1bb 5b55 d2bb 830b 70bc
000001c0: 7262 2cba 2913 74bc 307b a1bc 6111 cbbb
000001d0: 2c3f 323b 118c b7bc 661f 9dbc 02f5 833c
000001e0: 452e 303d 3df6 813d 9f1e 843d bec3 d13d
000001f0: 64c5 723d 8a06 053c 95c5 84bc c9e4 7c3d
00000200: 64ff 0a3c 18a9 f9bb 5e92 453d c0eb 00bd
00000210: db03 1abd cb02 bbbc ad93 94bc 79a0 76bd
00000220: 010c 033c 55c4 bdbc 867a abbc bf47 7abb
00000230: ed75 0ebc 329a a4ba df26 e5bb 242b 5cbc
00000240: 8e4a a63b b163 9ebc cb18 cc3c 7e7e 1f3d
00000250: b2f0 4c3d bbbc e73d 8825 fb3d 6aed 143e
00000260: 2a79 523c 3229 07bd 9276 95bd 34c8 11be
00000270: 51e4 0abe 8a05 92bd 04c5 153c 6d27 70bd
00000280: 48f0 3bbd e8a7 a0bd 4447 8fbd 54b9 e7bd
00000290: 6dbf 8bbd d7d1 03bc 4681 7ebc 56c0 d2bb
000002a0: 8da8 88bb 9f5b c4bb 9b96 3ebc 849d 59bb
000002b0: dfd4 893c 5c74 8b3c 1785 243d afaa 4b3d
000002c0: 6305 8c3d c7e5 9c3d 7005 213e 0038 ca3d
000002d0: b37b 65bd f1fa bcbd 00f4 05be df2e c4bd
000002e0: 18f9 98bd 9135 5bbd 623e 29bd fcb2 e3bb
000002f0: 1d55 6bbc b3d2 4ebd 24af acbb 5b0e a5bc
00000300: 9876 3dbc 9b92 49bc d8e4 583b 76a6 3ebc
00000310: ef3b 0cbc 68c6 c0bb 15e3 06bc 80e4 1e3c
00000320: 8c1f 523d 6e7f 783d 939c 963d 03b2 6f3d
00000330: c32b bf3d fe8f db3d 1ceb 2e3e c04e 153d
00000340: 699c c1bd e576 9ebd 55b0 fe3b aeca 9a3d
00000350: 00dc d0bc fb9a 63bc bc10 883d 63e8 b33d
00000360: 3a62 de3c df5a 6cbb 85f6 51bd 5930 113c
00000370: 6edd 853c 0277 9c3b b7d2 5b38 43fa 4ebc
00000380: 98a8 81bb 3e34 bebc f94c bbbb cfc7 e33b
00000390: 5b90 693d e26e 0c3d 5688 433c 0664 fe3c
000003a0: 5fa8 b13d a869 de3d 4ab5 153e 0b00 af3a
000003b0: 70fa 1abe f4de 56be a609 01bd dd71 803c
000003c0: f980 943d 1dac b93d ef3e 0a3e e759 723d
000003d0: 4b63 a43d 8242 9c3c 3f69 a9bb 32fc 833d
000003e0: 93f0 8d3d 391a 1b3d 6266 c5bb 334a c7bc
000003f0: 67ae 26bc 93a2 a93a 9939 b0bb 2577 153b
-0.01577806 -0.01562746 -0.016000506 0.00026432177 -0.005866037 -0.01831667 -0.02221452 -0.006247232
-0.012690349 -0.015959065 -0.0029865685 -0.009624993 -0.021945339 -0.001686913 -0.0124378465 -0.019234136
-0.01736219 -0.00068321754 -0.0051920484 -0.019944483 -0.015855277 -0.005936026 -0.0074961474 -0.0019730623
-0.016303448 -0.01918938 -0.017883781 -0.012918006 -0.00025362658 -0.008196859 -0.022635853 -0.01740533
-0.018559886 -0.025730144 -0.021465285 -0.010304648 -0.019182257 -0.022580523 -0.019079985 0.00038329023
-0.013355598 -0.020810062 -0.0057101655 -0.024424458 -0.0021826045 -0.012888492 -0.015385501 -0.0125011895
-0.013986495 -0.009833891 -0.0138513055 -0.024669057 -0.012934961 -0.011118065 -0.00836609 -0.025267774
-0.007662831 -0.016916284 -0.01915429 -0.0025914323 -0.0033032126 -0.009788297 -0.01254856 -0.0112665575
-0.012143768 -0.021692827 -0.013406539 -0.007421418 -0.002933243 -0.032721147 -0.024711499 -0.025650546
-0.01406074 -0.02643533 -0.0034440956 -0.0059999325 -0.028837433 -0.037255615 -0.02232353 -0.0015357913
-0.018907277 -0.00060006045 -0.010900119 -0.013434333 -0.0032974964 -0.0098835565 -0.011841349 -0.02398564
-0.0042694593 -0.022927094 -0.03589185 -0.024797251 0.0011882253 -0.0029511582 0.0370643 0.028027846
0.050295405 -0.027546233 -0.034114897 -0.010087831 -0.011701871 -0.02139704 -0.051465068 -0.041526217
-0.00046603507 0.009605488 0.010887945 -0.032437563 -0.034705207 -0.0068693156 -0.0064188666 -0.014651182
-0.0006575949 -0.014897146 -0.01971206 -0.00619714 0.0027198298 -0.022405656 -0.019180011 0.01610804
0.043012876 0.06345794 0.06451153 0.10242413 0.059270278 0.008119235 -0.016207496 0.061741624
0.008483741 -0.0076190345 0.04823529 -0.03147483 -0.037601333 -0.02282848 -0.018136824 -0.060211632
0.007998467 -0.023164907 -0.020932447 -0.0038189737 -0.008695108 -0.0012558161 -0.006993159 -0.01343802
0.0050748056 -0.019334646 0.024914166 0.03893899 0.050034232 0.11315294 0.12263018 0.14543691
0.012846271 -0.03299827 -0.07298006 -0.14236528 -0.13563658 -0.07129963 0.0091412105 -0.05863135
-0.045883447 -0.078445256 -0.06996015 -0.113146454 -0.06823621 -0.008045635 -0.015533751 -0.0064316196
-0.0041704834 -0.0059923674 -0.011632587 -0.003320546 0.016825138 0.017023258 0.040165987 0.049723323
0.06836965 0.07661014 0.1572473 0.098739624 -0.056026172 -0.09227551 -0.1308136 -0.095792525
-0.07469386 -0.05351788 -0.04131926 -0.006948827 -0.014363554 -0.050493907 -0.005269902 -0.020148447
-0.0115639195 -0.01230302 0.0033095386 -0.011636367 -0.008559211 -0.005883027 -0.0082328515 0.009698033
0.051299617 0.0606684 0.07354083 0.058519375 0.09334519 0.10720824 0.17081875 0.036452055
-0.09453661 -0.07737521 0.0077724853 0.07558189 -0.02549553 -0.013891931 0.06643817 0.087845586
0.027146447 -0.0036064906 -0.05126049 0.008861625 0.016340937 0.004774929 5.2409912e-05 -0.012632909
-0.0039568655 -0.02321827 -0.005715963 0.0069513093 0.057022434 0.034285434 0.0119343605 0.031053554
0.08674692 0.10859996 0.14619938 0.0013351453 -0.15134597 -0.20983487 -0.031503342 0.015679294
0.07251162 0.09066031 0.1350057 0.05916777 0.08026751 0.019074682 -0.005170017 0.06444587
0.069306515 0.037866805 -0.006024168 -0.024327373 -0.010173417 0.0012942128 -0.00537796 0.0022806611

linear_sequence.0.bias f4 [196]
00000000: c355 963b 6b94 02bc 2dcc f7bb 384f f83c
00000010: 2b1d 183c 1b9e 803b 971b 343c 480d 013c
00000020: ce26 0b37 2eff 9b3c de7d 5bbc a956 a93c
00000030: d04c 08bc e348 c03b 742a 6dbc dd75 8cbc
00000040: f46a 943b 9370 f73b 8f44 4ebb bc9d 6d37
00000050: fe65 cabb 9d2d bc3b fa8a f43b 7345 cfbb
00000060: cec1 cb3a 914b 5fbb 9a99 a73b 9c56 8f3b
00000070: b73d b7ba f932 86bb c24a 1dbc 25b2 b5bb
00000080: e414 ad3b 19f9 103c b2d2 ae3c 0835 8d3b
00000090: 949a b7bc 14b1 83bc d38d 243c aecd 4abb
000000a0: 155b 98bb eaf6 96bb fac3 86bb f0b4 c5bb
000000b0: 23a2 8c3b eeee 68bb 2a2d 9abc d367 d4bc
000000c0: b740 883c fb89 25bc 9c88 10bc a1c1 60bc
000000d0: b4da fdbb 9ff8 a43a 80e2 173c f378 bd3b
000000e0: e5f9 a4bc ed4e 903c f711 5cbb 977b 0d3c
000000f0: d815 65b8 c95a 0e3c 335c cb3b 1def 933c
00000100: 6759 b9bc a345 b3bb 3ef2 18bb 89f4 6cbc
00000110: 5811 b6bb 60e4 a53b ed3f 173c e9ef 28bc
00000120: 4e16 54bc 9960 c5ba 1791 31bb c14c 843c
00000130: d783 893a 92a7 913c edca 02bc 2d4f f8bb
00000140: 209f 93bb 46dd 493b 28e0 ceba bfbd cbba
00000150: 01d5 99bc edfe cc3b 8f4a 3dbc 8556 ad3b
00000160: 143f 463c ea4d 133c f534 15bb 82e8 993c
00000170: 535f 633c 93ed f33a 2aa6 d83b 9aab dcbc
00000180: 041d 543b af97 21bc ebe0 bbba 122d afbb
00000190: b738 b93b e351 2ebc 78c2 91bc 25c6 aebb
000001a0: f35e 28bc 7c37 d3ba 43a3 83bc 7d17 813b
000001b0: 5b17 073b dc6d 2d3b bd95 6e3b a9da 89bc
000001c0: 0da9 bb3b 1f67 4cbc 3bb7 17bc a8c9 a33b
000001d0: 1c1f b93b 0081 c53b 2a96 253c 7553 1dbc
000001e0: e48e 3ebc c60a 1abc d110 2d3c 88cd babb
000001f0: 8483 633b 69b6 4cbc 00ac 933b f587 aa3b
00000200: 4bf8 743b ff0d 4ebb 70c1 16bb a0e9 793b
00000210: 0f44 443b a0ae ea3b df5f dcbb ac35 6a39
00000220: da6e c7bb 93ab 433c 7db4 d13b 1de7 08bc
00000230: 9b62 6abc d599 85bb 74ec d3bb eec1 b93b
00000240: ebdd 1cbb 4d5c cc3b a7b9 15bb d4a9 1c3c
00000250: 851f ef3b 491c 02bc c6db 0a3c eb06 bbbb
00000260: ce12 503c 8c06 1dbc 7511 b73b 871d 79bb
00000270: 74af 82b9 28ac 51bb 4a83 9e38 68de c0bc
00000280: d658 b43a b195 393b 1f17 5938 bbf6 82bc
00000290: 15ba 893c 7f76 b43a e2e2 bbbb a10e a03c
000002a0: 07cf 933b d57c a0ba 887d 873b 4a36 613c
000002b0: e408 26bc d194 dcbb fa89 54bb 8fa5 6cbb
000002c0: c634 ce3b 6d55 5fbb f272 a13b 83af 66bb
000002d0: 72f1 043c 3d28 37bb bd61 9439 2592 1bbb
000002e0: 8bb1 c1bb 8c07 77bb 364b 26bb 7eea 00bd
000002f0: a211 22bb eb6b 7e3b 5fa6 02bb d597 7a3c
00000300: 52da 80bb f1b7 13bc af0b fe3b 20ec 7e3b
0.0045878603 -0.007969956 -0.0075621814 0.030311212 0.009284298 0.0039250976 0.010992906 0.007876702
8.2940805e-06 0.019042578 -0.013396708 0.020671206 -0.008319095 0.005868064 -0.014475454 -0.017146045
0.0045293514 0.0075512617 -0.003147397 1.4163026e-05 -0.006176709 0.005742742 0.0074628564 -0.0063254177
0.0015545429 -0.003407214 0.0051147463 0.0043743383 -0.0013980184 -0.004095432 -0.009600343 -0.005544918
0.0052820314 0.008848452 0.021340702 0.0043093003 -0.022412576 -0.016075648 0.010043579 -0.0030945349
-0.0046495297 -0.004607071 -0.0041127177 -0.0060335323 0.004291789 -0.0035542804 -0.018820364 -0.025928413
0.016632421 -0.010103698 -0.008821633 -0.01371804 -0.0077470187 0.0012586302 0.00927031 0.0057822405
-0.02013869 0.01761576 -0.0033580044 0.008635423 -5.46182e-05 0.008688637 0.0062060594 0.018058354
-0.022625638 -0.005470948 -0.0023337747 -0.014462599 -0.0055562668 0.005062625 0.00923155 -0.010311105
-0.012944771 -0.0015058696 -0.0027094537 0.01614988 0.0010491562 0.017780099 -0.007982952 -0.007577798
-0.004505053 0.0030802055 -0.0015783357 -0.001554422 -0.018778326 0.0062559755 -0.011553421 0.005289855
0.0121 0.008990744 -0.002276716 0.018787626 0.0138777075 0.0018610231 0.006611605 -0.026937295
0.0032365927 -0.009862824 -0.0014333999 -0.005345949 0.005652513 -0.0106396405 -0.017792925 -0.0053336793
-0.010276544 -0.0016114558 -0.01606906 0.0039395676 0.0020613286 0.0026463186 0.003640517 -0.016827898
0.0057269395 -0.012475758 -0.009259994 0.0049984045 0.0056494605 0.006027341 0.010106603 -0.009602417
-0.0116307475 -0.009401983 0.010563091 -0.0057007708 0.003471584 -0.012494662 0.004506588 0.0052041956
0.003737944 -0.0031441448 -0.0023003481 0.0038133636 0.0029947793 0.00716193 -0.006725296 0.00022335973
-0.0060862126 0.011942762 0.0063996897 -0.008355883 -0.014305736 -0.004077176 -0.0064673964 0.00566887
-0.0023935984 0.006236589 -0.0022846253 0.009561975 0.0072974586 -0.007941314 0.00847525 -0.005707612
0.012699796 -0.00958408 0.005586798 -0.0038011984 -0.00024926255 -0.0031993482 7.5584816e-05 -0.023543552
0.0013759385 0.0028317983 5.1758365e-05 -0.01598679 0.016812364 0.0013768225 -0.0057338336 0.019538226
0.0045107636 -0.0012244234 0.0041348375 0.013745854 -0.010133956 -0.0067316075 -0.0032430873 -0.0036109423
0.006292912 -0.0034078017 0.0049270326 -0.0035199828 0.008114206 -0.0027947568 0.0002830158 -0.0023738232
-0.0059110573 -0.0037693707 -0.002537442 -0.03147363 -0.0024729748 0.0038821648 -0.001993559 0.015294989
-0.003932276 -0.009016023 0.0077528576 0.0038898066

linear_sequence.1.weight f4 [48, 196]
00000000: 7834 733b b901 d93d 3b15 b83d d52b c53d
00000010: 09b7 123e e165 003c 0eea cf3d 2c62 66be
00000020: 9f14 d03b f428 593e 2126 85bc fd6a 0abd
00000030: 9054 eabd 0985 eabd 0dbe ab3d 4b5f bd3d
00000040: 7450 49bd be8b c9ba d287 da3d faa5 103e
00000050: 046b 5dbe 3b7e d4bb 6c45 fabc f737 61bc
00000060: c5f7 08bd eef0 a5be 9101 c3bd 218d b03d
00000070: 9285 85be 486b 6bbb 0323 fb3d d425 f9bd
00000080: 357e fe3d 8d5b 9a3d b640 cebc 518e 3dbc
00000090: bfef 95bd ad02 123c 4447 613d f5f2 a43d
000000a0: f81c 4e3c f834 c63d 2356 6fbc a930 243c
000000b0: c1e5 d4bd 09ee 0cbe 61c5 253b 32cd 3a3e
000000c0: 097a dcbd 8185 b23d d0da 4f3e 5b61 ae3e
000000d0: dbcf 523e 4bd5 723d 057e 2fbd 1257 713e
000000e0: eb5f 34be 2bfd 063d b4a2 94be 7fa5 043c
000000f0: e0e3 11bd 1220 d9bb 16d1 7b3e c28c d33d
00000100: 9397 a4bd cabd 413e dc7b e5bd fce3 dbb9
00000110: 2791 ac3d 7318 ad3c 12eb adbb 7909 aabd
00000120: 7437 73be a5fb c4bd 363e 8a3c 50fe b3bd
00000130: 9713 493d 639a a63d 2eb6 8f3e 92f1 28be
00000140: 3c52 ea3e fa74 683c 5389 e5bc 9baa c7bd
00000150: 41f0 5b3c a9b7 1a3e 836b 24be 15be fe3b
00000160: 0d2a b8bb cb0b 57bd 4c42 6ebd d0cf a53d
00000170: 3148 4d3d 5bab c13d 6072 11bd 0083 233e
00000180: 5584 29bc 173b 7a3c cb99 b0bb 2f24 c03c
00000190: 2879 283e 0907 42be 6825 743c 60d6 283d
000001a0: 57c0 abbd 03d8 2e3d 8959 2ebe 07af 0f3e
000001b0: 27c9 8e3c 65e0 0b3d 1a51 fa3c 7704 383e
000001c0: 3112 7c3d 9f0d 63bd 3971 4d3d ce6b 993d
000001d0: c49f 6abe 97db f5bd 8974 57bd 21fa f8bd
000001e0: 5247 4c3d 4258 84be 9453 39bc 3335 7a3e
000001f0: 91df bbbd 842e 92bd 94ab 793c 359f e43c
00000200: 9d51 11be e90c 4a3c 8f20 5f3e 6470 b93d
00000210: 4fdd 9f3c bbd3 3abe da03 043e eb9d 0abe
00000220: eed7 10be 9e75 57bd f6e3 ac3d 035a c1bd
00000230: 7ff8 6bbd 29ed 59bc 4d94 713d a08d efbd
00000240: dd94 dc3a b2ff 11be fa4e 8fbe 27f9 e03c
00000250: a9a0 493d c927 02be 47e9 39bd 8e26 d8ba
00000260: 1bd2 9e3d 00bc 923e b24e 503d aa02 38bc
00000270: a89d 85be ef1c c938 9642 ce3d 7253 e03d
00000280: 735d da3b 01b7 0dbe 1b88 60bd 88cd d63d
00000290: b4b8 3c3d 236a a73d 4218 303e acf2 3ebe
000002a0: b26d 333e 3dc4 6f3c 28eb 79bd ee72 373d
000002b0: cfa2 853b dad4 183c 50be 1b3a 7c38 d23a
000002c0: b3bc 7b3e 49fb 2e3e 4c78 1dbe e90d 2bbd
000002d0: 6705 b3bd 675a 02bb f1de 0e3e c0c1 87be
000002e0: 59d5 30be 26fd a0be c1ea 163c a304 99bd
000002f0: cc2e a4bb 9bef 103c 293d 36be 8c82 d33d
00000300: 82df 113e 5fe2 7bbd f252 77bc f4a1 0b3c
00000310: 79bd 953d e40a 93bb 4df4 51bc ca2e 123e
00000320: ee01 5ebd 7bb4 603c 2d56 3c3d 44a4 6e3c
00000330: aa2e edbd f85f cdbd ecb7 493e b848 103e
00000340: 506a 73be 3f9a 36bd 8b12 163d 7935 be3c
00000350: 7868 38bd 4c05 923d 5c5e e83c 9f5c 7d3d
00000360: b0bb 74bd 7bc0 2c3d 999c 55bd 3d2f 01bc
00000370: 9c74 d7bd 7f23 f3bc 34d8 f43c 2239 d53d
00000380: 9630 90be 5bad c93a fd88 7e3e f9c1 41be
00000390: c235 10be 5dc2 163e 5be5 7d3d a235 5b3c
000003a0: 7420 8e3c c5f5 1cbb 6ddf 06be 65d9 c13e
000003b0: 0791 563d f5f3 633d fce5 34bd cdc2 82bb
000003c0: c93f 8dbd 715b cdbb fb7d 263e f7f1 893d
000003d0: b56c 5abe 5164 b43b 86e5 b6bd a53b 493e
000003e0: 2751 543e 1f33 f53d 1479 be3e 3c2d a43d
000003f0: 3840 5e3d 1a9c 8dbd 4732 a5be 5c21 613e
0.0037110131 0.10596032 0.089884244 0.09627501 0.14327635 0.00783679 0.10152064 -0.22498387
0.0063501145 0.21207029 -0.016253533 -0.03379344 -0.1144191 -0.11451156 0.08385859 0.09246691
-0.04914899 -0.001537673 0.10670437 0.14125815 -0.21622854 -0.0064847744 -0.030550681 -0.013746253
-0.033439416 -0.32410377 -0.09521783 0.08620668 -0.2607847 -0.00359221 0.12262537 -0.12165418
0.12426416 0.07536993 -0.025177341 -0.011569575 -0.073211186 0.008911771 0.054999605 0.08054153
0.012580149 0.09678072 -0.014607939 0.010021367 -0.103953846 -0.13762678 0.002529465 0.18242338
-0.10765464 0.0871687 0.20298314 0.3405865 0.20587103 0.059285443 -0.04284479 0.23568371
-0.17614715 0.032956284 -0.29030383 0.008096098 -0.03561771 -0.0066261375 0.24591479 0.10329582
-0.08036723 0.18920055 -0.11205265 -0.00041940797 0.08426123 0.021129822 -0.0053075636 -0.08302588
-0.23751622 -0.0961831 0.016875368 -0.08788741 0.049090948 0.08134916 0.2806868 -0.16498402
0.45765865 0.014188046 -0.028019583 -0.09749337 0.01342398 0.15109123 -0.16056637 0.0077741244
-0.005620247 -0.05250148 -0.058168694 0.08096278 0.050117675 0.094565116 -0.035509467 0.15967941
-0.010346492 0.015272877 -0.0053894273 0.023454754 0.16452467 -0.18947996 0.0149014965 0.04122007
-0.08386295 0.042686474 -0.17026342 0.14031611 0.017429901 0.034149546 0.03055625 0.17970453
0.061540786 -0.055432912 0.050156806 0.07491265 -0.22912508 -0.12004774 -0.05260137 -0.12157083
0.049872704 -0.25848585 -0.0113114305 0.24434356 -0.09173501 -0.071377784 0.015238661 0.027907947
-0.14191289 0.01233218 0.21789764 0.0905464 0.019514708 -0.18244831 0.12892094 -0.13536803
-0.1414487 -0.052602403 0.084419176 -0.094409965 -0.05761003 -0.013301172 0.05897932 -0.11696935
0.0016829033 -0.14257696 -0.27989942 0.027462555 0.049225483 -0.1271049 -0.045388486 -0.0016490982
0.07754918 0.28659058 0.0508563 -0.011231104 -0.26096845 9.589816e-05 0.10071294 0.10953416
0.006663972 -0.13839342 -0.0548173 0.10488421 0.046074584 0.08174541 0.17196754 -0.1864726
0.17522314 0.014634189 -0.061015278 0.04478734 0.004078246 0.0093280915 0.00059411395 0.0016038562
0.24583702 0.17088045 -0.15377921 -0.041761313 -0.08741265 -0.001989031 0.13952233 -0.26515007
-0.17268886 -0.31443137 0.009211243 -0.074715875 -0.0050104614 0.008846189 -0.17796768 0.10327634
0.14245418 -0.06149518 -0.015095459 0.008522499 0.0731153 -0.0044873822 -0.0128145935 0.14275661
-0.05420106 0.013714905 0.04598062 0.014565531 -0.11581166 -0.1002807 0.19699067 0.1409024
-0.23771024 -0.044580694 0.036638778 0.023218857 -0.045021504 0.071299165 0.028365307 0.06185591
-0.059749305 0.04217575 -0.052151296 -0.007884798 -0.10520288 -0.029680012 0.02988825 0.10411288
-0.28162068 0.0015386747 0.24856944 -0.18921651 -0.14083007 0.14722581 0.06198631 0.013379486
0.01734946 -0.00239502 -0.13171168 0.3786117 0.052384403 0.055652577 -0.044164643 -0.003990507
-0.06896932 -0.006267004 0.16258995 0.06735604 -0.21330531 0.0055051227 -0.08930497 0.19651659
0.20734082 0.11972641 0.3720175 0.0801644 0.054260463 -0.0691454 -0.3226492 0.21985382

linear_sequence.1.bias f4 [48]
00000000: f252 b63c 45ce 123d 5e6f a63c 577b a2bc
00000010: 4410 90bb f6ae 103b 87fe 283d 9a3f fb3c
00000020: ffbe 433c e6fd dabc e6e6 76bc 35a3 75bc
00000030: bc73 a23c 98f1 133d 7001 43bd 097b c83c
00000040: cc8e 1d3d e8c3 ac3c cd4e 973b d6d2 f3bc
00000050: 10b7 523c eb79 633d 5c85 03bd 30a0 82bc
00000060: 8e8b 00bd 1c71 22bc 8dca 2e3d 7b12 033c
00000070: e7f1 e4bc 0e18 203d 4002 d7bc bae9 073d
00000080: 2a20 dcbb 17e1 28bd b7df 163d ee20 3e3d
00000090: 8f46 0c3d 688e fd3b 4509 e83c 250b 1c3d
000000a0: d262 bf39 b88a d43c e220 493a 658d f23c
000000b0: fd8a c6bc 3c1a e8ba 2fba a73c 6a69 4939
0.022256348 0.035841245 0.020316776 -0.019834204 -0.0043964703 0.002207694 0.04125836 0.030669976
0.0119473925 -0.026732396 -0.015069699 -0.014992525 0.019830577 0.036119074 -0.047608793 0.02447273
0.03846626 0.02108951 0.004617548 -0.02976362 0.012861028 0.055536192 -0.032109603 -0.015945524
-0.03138309 -0.009914663 0.042673636 0.008000012 -0.02794738 0.03908544 -0.02624619 0.033181883
-0.0067177014 -0.041230287 0.036834445 0.046418123 0.034246977 0.0077379234 0.028324733 0.038096566
0.00036503986 0.025945053 0.00076724414 0.029608438 -0.024236197 -0.0017708014 0.020474521 0.00019208124

final.weight f4 [10, 48]
00000000: 1e04 2b3f 36a4 333f 2cf9 74be a682 bc3e
00000010: 31e0 ee3c 533f 15bf 3376 14bf 0879 0abf
00000020: e47f 27bd f56f 13bf 7327 d43e e4e9 09bf
00000030: cc95 113f d2f5 23bf 101a 0abf d90d 1cbf
00000040: 6902 133f 0bf0 5bbf aace 4d3f 16f2 023f
00000050: dd04 94be 37d7 80be a06f 3f3f 494b 093f
00000060: 60fe 11bf 444d 283f a2bc 663f deb7 4bbf
00000070: e44e 203f 04fb 153f a497 0ebf 0096 29be
00000080: dc24 22bf e957 82be 7f03 2dbf 6a10 64bf
00000090: 9d0b dbbe 7869 193f ee59 cbbe 985d 2bbf
000000a0: ca4d 97be 9f63 11bf be41 82be 8233 cb3e
000000b0: daed 513f 3d87 4abf 2d91 ee3e f470 293f
000000c0: ed5e a8be 6b6c 0c3e 5ab0 ff3e 3e85 f0be
000000d0: b217 ab3d 8cdd 23bf 4189 543f b311 083f
000000e0: efd6 44be ff92 58bf 09d5 4ebf 2a2f 823e
000000f0: 298b c03e c8f1 013f f801 27bf bf4c bd3d
00000100: 1c86 b5be 6c0a d13e e0e4 f9be 56cb 6e3f
00000110: 97ca 883f c195 1e3f e3d4 02bf 8b5f 69bf
00000120: d22d e9be c23e 0a3f c232 713f 5371 333e
00000130: aa16 13bf 2bd1 26bf c5ef e13e f774 35bf
00000140: b247 813e f545 373f a34f 733e a90a 36bf
00000150: 6deb ad3e d1ae 09bf 6812 68bf 4386 e73e
00000160: 2c80 5b3e a5ca 2a3f de61 41be 0079 5bbf
00000170: 93ff 253f c91d 07bf dabe 2cbf 2e3a 03bf
00000180: 7903 673f b009 2f3f a43c a5be 6c9e 06bf
00000190: 79ac 21bf efda 1c3f 9ef9 5f3a 0a50 4cbf
000001a0: 8dd1 343f 8279 79be f248 103f 749c 21bf
000001b0: d06a adbe 8d41 77bf 449d abbe 0261 243f
000001c0: c695 4c3f b319 0a3f f4b0 32bf d9ae 14bf
000001d0: 06be 15be 6739 21bf 7b13 4abf 1788 46bf
000001e0: 2f21 2abf 6a02 473f c7ed 75be e0ed 84bf
000001f0: 033e 53bf af06 12bf ae99 00bf 2c19 343f
00000200: db5c 323f ffc5 453f 512d 3cbf 71fd 1a3f
00000210: 603b 18bf 0ce8 59bf 0ef7 1d3f e71e b23e
00000220: 872d 7bbe 9567 073f 62f9 5b3f 996d ff3e
00000230: 2049 09bf bf9f 29bf daae 1b3f e01c 12bf
00000240: c3f4 75bf 19a8 493f cfca 32bf 163f f23e
00000250: 06fb 91be e2a9 37bf 3625 4dbf 1fe1 9bbe
00000260: d254 1a3f cb5c 273f e62b 273f 66e9 16bf
00000270: 16f7 88bf 8206 2e3f e392 d8be a6ad f2be
00000280: 76c4 80bf c231 bd3e b8e5 15bf 9aa2 30bf
00000290: efcc 94be 6380 f2be bc62 fabe 553a 1f3f
000002a0: 11a2 6e3f 8f04 2fbf 6943 363f 7095 343f
000002b0: ad71 5abf 73d6 29bf 0185 71bf ed93 31bf
000002c0: 6d63 383f 2d8a 30bf 917a 203f af86 aa3e
000002d0: 7f3b 35bf 4ab9 653f 85ce 96be 4d45 0f3f
000002e0: 30af 45bf 78c7 153f 09af 0ebf 423e 7d3e
000002f0: ec60 46bf 1749 1f3f a860 1f3f 407f c2be
00000300: e8d5 023f ef70 f3be 3ca5 613e 0c2f 5cbf
00000310: bb65 69bf e0be bc3e bcd3 433f a390 5fbf
00000320: ac50 26bf a3ad 24bf 8e7c 0b3e 7118 563e
00000330: 5505 1d3f 1383 33bf 80f8 4e3f 7a55 66bf
00000340: a8e0 9d3e 8035 7bbf 6c43 37bf 534d 09bf
00000350: dfe7 c6be 8d83 b13e 7dcf e63e 2867 993e
00000360: 91b7 f73e 2c1c 1cbf 8bed bbbe 4256 aabb
00000370: 6568 923e bc89 1e3f 9104 173f 8ef2 a93e
00000380: 64b5 dc3e 43c0 1ebf 6182 c83e 07fb 59bf
00000390: 2b71 d83e d01a b93e a88b 59bf c2bb eb3e
000003a0: 4021 ec3e 7da2 3e3f cb8c 443f 68a8 91bf
000003b0: 97c6 ef3e cbf7 c43e 674f 17bf edc2 37bf
000003c0: 9088 08bf 00ca 2cbf 82be 19bf 2f13 443f
000003d0: febb 28bf 7535 98be 12a2 663f 8591 3c3f
000003e0: 74bd 2c3f 2fe7 263f 44e3 8cbf 9f9d 13bf
000003f0: aa87 053f 9007 ab3e 3bbb 213f 8097 fa3e
0.6680316 0.7017244 -0.23923177 0.36818427 0.029159637 -0.5829975 -0.5799286 -0.5409093
-0.04089345 -0.5759271 0.41436347 -0.53872514 0.56869197 -0.6404697 -0.5394602 -0.6095863
0.5742555 -0.8591315 0.8039347 0.51150644 -0.2890996 -0.25164196 0.747797 0.536305
-0.5702877 0.657429 0.9013158 -0.79577434 0.6262038 0.58586144 -0.55700135 -0.16561127
-0.6333749 -0.25457695 -0.6758346 -0.89087546 -0.42782298 0.5992656 -0.39717048 -0.6693969
-0.29551536 -0.56792635 -0.25440782 0.39687735 0.8200356 -0.7911261 0.46595135 0.6618798
-0.32884923 0.13713233 0.49939233 -0.46976656 0.08354129 -0.6400993 0.8302193 0.53152007
-0.19222616 -0.845993 -0.80793816 0.25426608 0.3760617 0.50759554 -0.6523738 0.09243154
-0.3545388 0.40828264 -0.4880743 0.93279016 1.0686826 0.61947256 -0.5110609 -0.9116141
-0.4554277 0.5400201 0.94218075 0.17523699 -0.5745646 -0.65162915 0.44128242 -0.708816
0.25250012 0.7159112 0.23760848 -0.71110016 0.33968678 -0.53782374 -0.90653086 0.4521962
0.21435612 0.6671546 -0.1888499 -0.85731506 0.648431 -0.52779824 -0.67478716 -0.5126065
0.90239674 0.68374157 -0.32272828 -0.5258548 -0.631538 0.61271566 0.0008543971 -0.7980963
0.7063225 -0.24362758 0.56361306 -0.63129354 -0.33870554 -0.965844 -0.33518422 0.6421052
0.79916036 0.53945464 -0.6980126 -0.58079296 -0.1462327 -0.62978214 -0.78935975 -0.77551407
-0.66456884 0.7773806 -0.24016486 -1.0385094 -0.825165 -0.5704145 -0.50234497 0.7035091
0.69672936 0.77255243 -0.7350665 0.6054297 -0.594656 -0.851197 0.617051 0.34789202
-0.24529086 0.5289243 0.859274 0.49888304 -0.53627205 -0.6625938 0.6081368 -0.5707531
-0.960766 0.7877212 -0.6984071 0.47313756 -0.28511828 -0.71743596 -0.80134904 -0.3044519
0.60285676 0.65375966 0.6530136 -0.5894989 -1.0700405 0.6797868 -0.42299566 -0.47398108
-1.0059955 0.36952025 -0.5855365 -0.6899811 -0.29062602 -0.47363576 -0.48903453 0.6219838
0.93216044 -0.6836633 0.7119661 0.70540524 -0.85329705 -0.6634285 -0.9434357 -0.6936634
0.7202671 -0.6896084 0.6268702 0.3330588 -0.7079391 0.89735854 -0.29454437 0.5596512
-0.7722044 0.5850749 -0.5573583 0.2473078 -0.7749164 0.622209 0.6225686 -0.3798771
0.51107645 -0.475471 0.22035688 -0.8600929 -0.91170853 0.36864376 0.76494956 -0.87330073
-0.64966846 -0.6432745 0.13621733 0.20907761 0.6133626 -0.7012188 0.8084793 -0.89974177
0.30835462 -0.9812851 -0.7158725 -0.5363361 -0.3884878 0.34670678 0.45080176 0.29961514
0.48382238 -0.60980487 -0.36704668 -0.005198271 0.28595272 0.61928916 0.5899134 0.33192867
0.4310714 -0.6201212 0.3916197 -0.8514866 0.4227384 0.3615327 -0.84978724 0.46041685
0.46119118 0.7446669 0.76777333 -1.1379519 0.468312 0.384703 -0.59105533 -0.7178181
-0.5333338 -0.6749573 -0.60056317 0.7659177 -0.65911853 -0.29728284 0.9009105 0.73659545
0.6747658 0.6519651 -1.1006856 -0.57662386 0.5216013 0.33404207 0.63176316 0.4894371

final.bias f4 [10]
00000000: 8882 a73d dce1 443d 5e2a 3e3e cc91 b23d
00000010: 5925 7fbe bd6a 0b3e 6365 44be 14de f0bd
00000020: 62e3 e63d ff58 26bd
0.08179194 0.04806696 0.1857085 0.08719215 -0.24916591 0.13614936 -0.19179301 -0.11761108
0.112738386 -0.040612217
